…
        return self.model(**model_inputs)
File:      ~/mambaforge/envs/llm_base/lib/python3.11/site-packages/transformers/pipelines/text_classification.py
Type:      method</code></pre>
</div>
</div>
<div class="cell">
<div class="sourceCode cell-code" id="cb25" style="background: #f1f3f5;"><pre class="sourceCode python code-with-copy"><code class="sourceCode python"><span id="cb25-1">classifier.model</span></code></pre></div>
<div class="cell-output cell-output-display">
<pre><code>DistilBertForSequenceClassification(
  (distilbert): DistilBertModel(
    (embeddings): Embeddings(
      (word_embeddings): Embedding(30522, 768, padding_idx=0)
      (position_embeddings): Embedding(512, 768)
      (LayerNorm): LayerNorm((768,), eps=1e-12, elementwise_affine=True)
      (dropout): Dropout(p=0.1, inplace=False)
    )
    (transformer): Transformer(
      (layer): ModuleList(
        (0-5): 6 x TransformerBlock(
          (attention): MultiHeadSelfAttention(
            (dropout): Dropout(p=0.1, inplace=False)
            (q_lin): Linear(in_features=768, out_features=768, bias=True)
            (k_lin): Linear(in_features=768, out_features=768, bias=True)
            (v_lin): Linear(in_features=768, out_features=768, bias=True)
            (out_lin): Linear(in_features=768, out_features=768, bias=True)
          )
          (sa_layer_norm): LayerNorm((768,), eps=1e-12, elementwise_affine=True)
          (ffn): FFN(
            (dropout): Dropout(p=0.1, inplace=False)
            (lin1): Linear(in_features=768, out_features=3072, bias=True)
            (lin2): Linear(in_features=3072, out_features=768, bias=True)
            (activation): GELUActivation()
          )
          (output_layer_norm): LayerNorm((768,), eps=1e-12, elementwise_affine=True)
        )
      )
    )
  )
  (pre_classifier): Linear(in_features=768, out_features=768, bias=True)
  (classifier): Linear(in_features=768, out_features=2, bias=True)
  (dropout): Dropout(p=0.2, inplace=False)
)</code></pre>
</div>
</div>
<blockquote class="blockquote">
<p>Summary: <code>?</code> and <code>??</code> are very powerful and useful inspection tools for Jupyter notebooks.</p>
</blockquote>
</section>
<section id="peeking-inside-the-pipeline" class="level1">
<h1>Peeking inside the <code>pipeline</code></h1>
…
